…
52244,"user_tz":-60,"elapsed":231,"user":{"displayName":"Oluwatosin Alabi","photoUrl":"https://lh3.googleusercontent.com/a/default-user=s64","userId":"11452325336631533332"}},"outputId":"f6d258c1-d6dc-4d6f-d56b-1c4df926e2be"},"source":["model.summary()"],"execution_count":2,"outputs":[{"output_type":"stream","name":"stdout","text":["Model: \"sequential\"\n","_________________________________________________________________\n"," Layer (type)                Output Shape              Param #   \n","=================================================================\n"," conv2d (Conv2D)             (None, 26, 26, 16)        160       \n","                                                                 \n"," max_pooling2d (MaxPooling2D  (None, 13, 13, 16)       0         \n"," )                                                               \n","                                                                 \n"," dropout (Dropout)           (None, 13, 13, 16)        0         \n","                                                                 \n"," conv2d_1 (Conv2D)           (None, 11, 11, 16)        2320      \n","                                                                 \n"," max_pooling2d_1 (MaxPooling  (None, 5, 5, 16)         0         \n"," 2D)                                                             \n","                                                                 \n"," dropout_1 (Dropout)         (None, 5, 5, 16)          0         \n","                                                                 \n"," flatten (Flatten)           (None, 400)               0         \n","                                                                 \n"," dense (Dense)               (None, 16)                6416      \n","                                                                 \n"," dense_1 (Dense)             (None, 10)                170       \n","                                                                 \n","=================================================================\n","Total params: 9,066\n","Trainable params: 9,066\n","Non-trainable params: 0\n","_________________________________________________________________\n"]}]},{"cell_type":"code","metadata":{"id":"QIuNWkyrmmun","executionInfo":{"status":"ok","timestamp":
…
